TreadmillDigitsModel_pytorch.pth (torch, 503046 bytes, 26 tensors)

weight f4 [12, 3, 5, 5]
-0.0406068 0.11922797 0.0072430572 0.007691365 -0.092124335 -0.009164424 0.048301194 -0.016156245
0.054329652 -0.041116554 0.07424724 0.11379972 0.055876825 -0.08138539 0.024310201 0.020886712
-0.11199566 -0.0013385554 -0.06635327 -0.01568232 -0.09688109 0.09481966 0.023249064 -0.061318114
-0.06571493 0.09205625 -0.0021021524 -0.0518516 -0.016155919 0.008735568 0.11633009 0.07718946
-0.01713141 -0.033897035 -0.02777966 -0.0059959684 0.13655162 0.11580839 0.13339958 0.120061986
-0.088359855 -0.027219899 0.14273188 -0.004872896 -0.0120257735 -0.009032469 0.08214568 -0.07090584
-0.04783637 0.01258232 -0.059847865 0.09195674 0.03362536 -0.076556385 -0.077460356 -0.0065613827
-0.040994138 0.062157813 0.071318924 -0.13903356 -0.08173595 -0.11039137 0.015484046 0.03595395
0.060713112 0.071727395 -0.03885499 0.058060393 0.036055353 0.062907845 -0.07615946 -0.07379326
-0.025416438 0.07717882 0.04560122 0.10462851 0.06271317 0.10189728 -0.052494634 -0.0076145283
-0.03337775 0.08222125 0.08401974 -0.083651334 -0.09333862 -0.06317967 -0.0678803 -0.078186385
0.10645939 -0.10103665 0.042771257 -0.017954262 -0.098939486 -0.04356312 0.07189385 -0.09781876
-0.0018673297 -0.0013085674 0.04104273 0.081514955 -0.004347237 0.13405679 -0.023444016 0.08800698
0.040797718 0.13328151 0.0853951 0.106570296 -0.07954789 -0.09239517 0.13455504 0.0038134574
0.14434263 0.10813958 -0.09559094 -0.008058574 0.06245418 -0.034966074 -0.0003071702 -0.011280516
-0.06605433 0.0029679025 -0.08233754 0.09426522 -0.08848336 -0.023294114 0.061096016 0.019889357
0.036529902 0.0038015835 0.069525085 0.02103632 0.03326204 0.016587693 0.08836796 0.12955366
-0.07446184 0.0013631885 -0.03163634 -0.099607855 -0.029330103 -0.058281854 0.00064863055 0.072184004
-0.040376525 0.022137571 -0.013919755 -0.00037748175 0.011635618 -0.051664095 0.00935211 0.0722629
0.100687824 -0.01255725 0.062310938 0.11875361 -0.05628288 -0.020075534 -0.042617343 -0.056607325
-0.098375514 0.08961702 -0.08638772 0.042831317 0.0070925066 -0.053231735 -0.031754225 -0.07965956
0.05103025 -0.078497134 0.0913094 -0.10680515 -0.002680634 -0.07001331 -0.0502138 0.11600899
0.06890468 0.12237852 -0.073133565 0.10126864 0.05539816 0.08328825 0.042749833 0.029682543
0.015109491 -0.057206765 0.044638284 -0.008716334 -0.07134663 0.05797514 -0.08129913 0.0050262525
0.057559673 -0.08581906 0.020288534 0.08672332 -0.02697349 -0.055021197 -0.04234385 -0.026738884
0.11332097 0.038326856 -0.035578292 -0.0024098898 -0.12842548 0.0016676807 -0.0056978874 -0.09167366
-0.025724366 -0.067432866 0.08736568 -0.06488256 -0.03042309 0.0740452 -0.0037687258 0.052243967
0.09123505 -0.019196028 -0.0066275517 0.05023376 -0.035383027 -0.086579405 0.027813066 0.005025058
0.04872742 0.106006004 0.10727032 0.023522949 -0.012093282 -0.07248696 0.041608468 0.100894585
0.08284164 0.082222156 0.05030497 -0.11363331 0.041050337 -0.06880026 0.07240582 -0.12314578
0.08480736 -0.09848142 0.06684897 0.012016363 0.04778291 0.002181336 -0.12136952 -0.09073284
-0.06262744 -0.14581311 0.1309831 0.16336447 0.13231951 0.041554708 -0.010080208 0.12729995
00000000: 5153 26bd cb2d f43d 2b57 ed3b d907 fc3b
00000010: afab bcbd 6126 16bc 79d7 453d 1a5a 84bc
00000020: c588 5e3d d569 28bd f00e 983d d40f e93d
00000030: 19df 643d 62ad a6bd 3026 c73c 9c1a ab3c
00000040: fb5d e5bd 7772 afba 39e4 87bd 3578 80bc
00000050: 9869 c6bd cf30 c23d d274 be3c b428 7bbd
00000060: 8d95 86bd fd87 bc3d 44c4 09bb 5862 54bd
00000070: 6b59 84bc a11f 0f3c 783e ee3d 8215 9e3d
00000080: 2c57 8cbc 9ed7 0abd 2b92 e3bc d479 c4bb
00000090: 30d4 0b3e f32c ed3d e699 083e 0fe3 f53d
000000a0: 03f6 b4bd 44fc debc 4e28 123e d0ac 9fbb
000000b0: c007 45bc ecfc 13bc ff3b a83d 1537 91bd
000000c0: 12f0 43bd 1326 4e3c 0923 75bd d153 bc3d
000000d0: bfba 093d 98c9 9cbd 89a3 9ebd de00 d7bb
000000e0: 78e9 27bd 3199 7e3d a80f 923d d05e 0ebe
000000f0: 2e65 a7bd df14 e2bd ccb0 7d3c 7344 133d
00000100: 50ae 783d d0e5 923d 6926 1fbd bcd0 6d3d
00000110: c7ae 133d d4d5 803d 7ef9 9bbd ec20 97bd
00000120: 2236 d0bc ee0f 9e3d 58c8 3a3d 7947 d63d
00000130: c36f 803d 85af d03d 9d04 57bd 4b83 f9bb
00000140: 1cb7 08bd 9d63 a83d 8b12 ac3d 6451 abbd
00000150: 5228 bfbd 5864 81bd d404 8bbd 2f20 a0bd
00000160: 6107 da3d 4eec cebd ea30 2f3d d114 93bc
00000170: c9a0 cabd 3e6f 32bd 153d 933d 3455 c8bd
00000180: 30c1 f4ba 3c84 abba 6c1c 283d 50f1 a63d
00000190: 4473 8ebb 2f46 093e aa0d c0bc 013d b43d
000001a0: 821b 273d f37a 083e a0e3 ae3d 8741 da3d
000001b0: 01ea a2bd ae39 bdbd ccc8 093e 33eb 793b
000001c0: 8ece 133e 4978 dd3d 2fc5 c3bd 1c08 04bc
000001d0: f4cf 7f3d 9638 0fbd b00b a1b9 ead1 38bc
000001e0: 7e47 87bd 2481 423b 96a0 a8bd 200e c13d
000001f0: c436 b5bd 4cd3 bebc d13f 7a3d 01ef a23c
00000200: 61a0 153d fd23 793b 2b63 8e3d 5c54 ac3c
00000210: c73d 083d eae2 873c 43fa b43d b7a9 043e
00000220: 737f 98bd 04ad b23a 1b95 01bd 34ff cbbd
00000230: af45 f0bc f4b8 6ebd dc08 2a3a 35d5 933d
00000240: db61 25bd da59 b53c af0f 64bc bee8 c5b9
00000250: 52a3 3e3c bb9d 53bd 9839 193c 92fe 933d
00000260: 6b35 ce3d edbc 4dbc c139 7f3d 1835 f33d
00000270: e188 66bd 7275 a4bc 868f 2ebd 15dd 67bd
00000280: 1a79 c9bd 2189 b73d 0cec b0bd e46f 2f3d
00000290: 4268 e83b 8509 5abd b810 02bd 8d24 a3bd
000002a0: 1805 513d 1bc3 a0bd 6c00 bb3d a9bc dabd
000002b0: 93ad 2fbb 2363 8fbd fcac 4dbd 1f96 ed3d
000002c0: e61d 8d3d 97a1 fa3d 0dc7 95bd ef65 cf3d
000002d0: 2ee9 623d 0893 aa3d 731a 2f3d ce28 f33c
000002e0: cc8d 773c a451 6abd a2d6 363d f4ce 0ebc
000002f0: 2f1e 92bd 5777 6d3d 2980 a6bd 43b3 a43b
00000300: b1c3 6b3d e7c1 afbd 2434 a63c ff9b b13d
00000310: 82f7 dcbc e85d 61bd bf70 2dbd 810b dbbc
00000320: d314 e83d 9ffc 1c3d 8bba 11bd 3eef 1dbb
00000330: f881 03be 1496 da3a 58b5 babb 66bf bbbd
00000340: e8bb d2bc 3e1a 8abd c7ec b23d 26e1 84bd
00000350: d839 f9bc 03a5 973d bafc 76bb c5fd 553d
00000360: 71d9 ba3d fd40 9dbc ef2b d9bb eac1 4d3d
00000370: cbed 10bd 8b50 b1bd 3ad8 e33c 3ea9 a43b
00000380: 6796 473d ad19 d93d 8bb0 db3d 33b3 c03c
00000390: e722 46bc 0b74 94bd a46d 2a3d d2a1 ce3d
000003a0: e1a8 a93d 1764 a83d 960c 4e3d 95b8 e8bd
000003b0: 6624 283d 27e7 8cbd 8149 943d db33 fcbd
000003c0: 7baf ad3d a0b0 c9bd 1de8 883d 48e0 443c
000003d0: 03b8 433d bff4 0e3b 9590 f8bd 24d2 b9bd
000003e0: d142 80bd 0850 15be 6f20 063e 0449 273e
000003f0: c47e 073e 4535 2a3d 7527 25bc eb5a 023e

bias f4 [12]
-0.02162104 -0.0022091263 -0.0015626601 -0.103377745 -0.10478182 -0.08574277 0.045514993 0.01860355
-0.11423391 0.07363482 0.041256823 0.07233289
00000000: 9b1e b1bc fdc6 10bb 2cd2 ccba b6b7 d3bd
00000010: da97 d6bd e899 afbd ee6d 3a3d 7966 983c
00000020: 78f3 e9bd dacd 963d eafc 283d 4423 943d

weight f4 [12]
0.9606304 0.97720563 0.94154537 1.0142025 0.92657393 1.0024638 0.9813026 0.995047
1.0102173 0.9792924 0.97821665 0.98933434
00000000: e0eb 753f 262a 7a3f 1e09 713f 63d1 813f
00000010: f333 6d3f bc50 803f a636 7b3f 66bb 7e3f
00000020: cd4e 813f e8b2 7a3f 686c 7a3f 0445 7d3f

bias f4 [12]
-0.04891477 -0.039378222 -0.035415296 -0.03901281 0.0083979 -0.040950753 0.024290554 -0.042387024
-0.01697207 0.019816235 -0.055289526 0.019566137
00000000: db5a 48bd 0f4b 21bd a10f 11bd e5cb 1fbd
00000010: 5897 093c fabb 27bd fcfc c63c 049e 2dbd
00000020: 0309 8bbc a855 a23c 4577 62bd 2a49 a03c

running_mean f4 [12]
0.0 0.0 0.0 0.0 0.0 0.0 0.0 0.0
0.0 0.0 0.0 0.0
00000000: 0000 0000 0000 0000 0000 0000 0000 0000
00000010: 0000 0000 0000 0000 0000 0000 0000 0000
00000020: 0000 0000 0000 0000 0000 0000 0000 0000

running_var f4 [12]
1.0 1.0 1.0 1.0 1.0 1.0 1.0 1.0
1.0 1.0 1.0 1.0
00000000: 0000 803f 0000 803f 0000 803f 0000 803f
00000010: 0000 803f 0000 803f 0000 803f 0000 803f
00000020: 0000 803f 0000 803f 0000 803f 0000 803f

weight f4 [12, 12, 5, 5]
0.023105904 -0.01877446 -0.013007784 0.034535997 -0.061754182 -0.015532883 -0.03834878 -0.0519562
-0.0035244997 -0.0008005787 -0.01648925 -0.031356394 -0.032189157 0.0050526666 -0.021229628 -0.049683113
0.027535303 0.0004444947 0.02208713 -0.018613439 0.003681585 0.053702623 0.05003534 0.038157508
-0.047476474 0.024205497 0.006324664 -0.0691655 -0.07016018 -0.063171186 -0.03049786 -0.0338927
-0.05413683 0.027348774 -0.04927677 0.0120958155 -0.02735197 0.014342041 0.03631367 0.021925978
0.046059106 -0.015700482 -0.018692758 0.006312535 -0.0079542585 0.03161556 0.040254485 0.05008429
-0.04098657 -0.04092608 -0.04364677 -0.043898903 -0.037824903 0.047651686 -0.007220079 -0.012208923
-0.021490876 -0.033715982 -0.027003864 -0.007939246 0.006778393 0.036802467 0.023393031 0.040860288
-0.03874739 0.013177946 0.008716783 0.03838364 -0.02527885 0.026766637 -0.040391337 -0.017843282
0.03097175 0.015204198 0.006061552 -0.050402526 0.019994764 0.008333943 0.027139004 -0.016168298
-0.0040108454 -0.02970258 0.007684354 -0.06104825 0.023813587 -0.0040359823 0.026013123 -0.034097157
0.013190032 -0.027825098 0.03429062 -0.008042942 -0.050511908 0.037377838 -0.005146058 0.030213162
-0.033014555 -0.048477765 0.014094701 -0.020896861 -0.052306894 0.022381706 -0.04240729 -0.046144843
-0.042652637 -0.006875708 0.0014079772 -0.006781023 0.03537929 0.023693552 -0.01158047 0.03617732
0.03410771 -0.036284223 -0.0058425455 -0.036116343 -0.02447173 -0.048461165 0.013713959 -0.0022857497
0.014249551 -0.012709338 -0.029094331 -0.04809872 -0.011138176 -0.05441581 -0.033312812 0.0031600376
-0.05484875 -0.056583334 -0.03291789 0.04192724 -0.056527723 0.018831486 0.004378022 -0.003848707
-0.02923183 0.031750336 -0.06138033 -0.06242393 0.043038707 0.0003233582 0.041526098 -0.023054838
-0.0030526493 0.055856816 -0.028192153 0.057383772 0.011789178 -0.01218102 0.017073868 -0.024443818
0.024168126 -0.035280034 -0.05998001 -0.043014348 0.004887239 0.028711088 -0.008573925 0.013156864
-0.04432811 -0.019432528 0.0076465206 -0.018819822 -0.063597895 0.036175124 0.024578067 0.039611813
-0.018784465 0.042397495 0.001124988 -0.058748186 -0.046253406 -0.037391953 0.018216144 0.040668726
-0.054735713 -0.03475484 0.028577488 -0.054655578 0.03993463 -0.042933267 -0.022868311 -0.06694483
-0.067405485 0.017291665 -0.00042368498 0.0013800266 -0.020718746 -0.049930077 -0.029449694 0.026206326
-0.02506671 -0.013500383 -0.024246698 0.038973924 0.05561067 0.050334413 0.044061393 -0.04943731
-0.0036791142 0.021865852 0.077786066 -0.0038999158 0.0068865605 0.061441682 -0.030866785 -0.005691072
0.0088109365 0.06091249 -0.039193835 0.013849746 0.0695291 0.087222226 0.046637695 -0.04505736
0.033054072 0.035549644 0.09133426 0.026188087 0.017428592 0.006950481 -0.009671404 -0.006556021
0.07635748 0.037319094 -0.05863994 -0.041022763 0.017652659 0.03833275 -0.064772606 0.047658604
0.04708754 0.0009926258 0.042572085 -0.013811101 0.025794681 0.041776627 0.040275723 0.035276905
0.04217718 -0.06259498 -0.035422787 0.04455892 -0.023941044 -0.020819241 -0.051729664 -0.004944758
0.033085063 -0.05672099 -3.312902e-05 -0.06525968 -0.06798844 0.016120259 -0.043987963 0.017559106
00000000: 9848 bd3c e5cc 99bc 9a1e 55bc 9e75 0d3d
00000010: f4f1 7cbd a27d 7ebc 9c13 1dbd 06d0 54bd
00000020: 4bfb 66bb eddd 51ba 7714 87bc 906f 00bd
00000030: c7d8 03bd d790 a53b c2e9 adbc 8580 4bbd
00000040: b791 e13c 120b e939 12f0 b43c 367b 98bc
00000050: bf46 713b 48f7 5b3d dbf1 4c3d 0c4b 1c3d
00000060: b176 42bd 9b4a c63c 213f cf3b a4a6 8dbd
00000070: 24b0 8fbd e55f 81bd a6d6 f9bc 12d3 0abd
00000080: 95be 5dbd 890a e03c 70d6 49bd 872d 463c
00000090: 3d11 e0bc e1fa 6a3c a5bd 143d 1c9e b33c
000000a0: 79a8 3c3d 4c9e 80bc 8e21 99bc 62d9 ce3b
000000b0: 9452 02bc 517f 013d e3e1 243d 2f25 4d3d
000000c0: 89e1 27bd 1ba2 27bd f5c6 32bd 56cf 33bd
000000d0: 49ee 1abd 6a2e 433d 6a96 ecbb ef07 48bc
000000e0: a20d b0bc c519 0abd 3537 ddbc 9c13 02bc
000000f0: 481d de3b 2fbe 163d bea2 bf3c 1e5d 273d
00000100: 95b5 1ebd 50e8 573c d6d0 0e3c 2a38 1d3d
00000110: 9715 cfbc b545 db3c 6371 25bd 132c 92bc
00000120: 78b8 fd3c 071b 793c fc9f c63b e172 4ebd
00000130: 0fcc a33c 178b 083c 9e52 de3c 6173 84bc
00000140: 696d 83bb d352 f3bc 09cd fb3b bb0d 7abd
00000150: b614 c33c 4640 84bb 7919 d53c 76a9 0bbd
00000160: 011b 583c 76f1 e3bc 5274 0c3d 8bc6 03bc
00000170: 93e5 4ebd 8119 193d 43a0 a8bb 9881 f73c
00000180: 453a 07bd 9f90 46bd 76ed 663c e52f abbc
00000190: c13f 56bd d759 b73c 44b3 2dbd 6002 3dbd
000001a0: 88b4 2ebd 9e4d e1bb e08b b83a 5833 debb
000001b0: e0e9 103d fb18 c23c 03bc 3dbc ab2e 143d
000001c0: 87b4 0b3d c49e 14bd d372 bfbb bbee 13bd
000001d0: f078 c8bc 377f 46bd 83b0 603c 84cc 15bb
000001e0: f376 693c d43a 50bc 3c57 eebc 2a03 45bd
000001f0: e57c 36bc 1de3 5ebd 0473 08bd a218 4f3b
00000200: 15a9 60bd edc3 67bd e9d4 06bd e6bb 2b3d
00000210: 9d89 67bd 7d44 9a3c 8375 8f3b 973a 7cbb
00000220: 9777 efbc a40c 023d f169 7bbd 3cb0 7fbd
00000230: 5b49 303d 6788 a939 4517 2a3d 80dd bcbc
00000240: f50e 48bb 1eca 643d 3bf3 e6bc 3f0b 6b3d
00000250: 6527 413c e792 47bc 7fde 8b3c 673e c8bc
00000260: 3cfc c53c cc81 10bd 99ad 75bd d02f 30bd
00000270: 2225 a03b 8433 eb3c a679 0cbc e38f 573c
00000280: 6491 35bd f730 9fbc aa8f fa3b 072c 9abc
00000290: 9d3f 82bd 5e2c 143d f157 c93c ff3f 223d
000002a0: e1e1 99bc ffa8 2d3d 5574 933a f0a1 70bd
000002b0: 3674 3dbd 4e28 19bd 063a 953c 4094 263d
000002c0: 8e32 60bd 175b 0ebd 561b ea3c 87de 5fbd
000002d0: 7f92 233d cbda 2fbd 5356 bbbc 5f1a 89bd
000002e0: e30b 8abd 40a7 8d3c 0922 deb9 02e2 b43a
000002f0: 5cba a9bc 7b83 4cbd 7c40 f1bc a6ae d63c
00000300: b358 cdbc b630 5dbc 03a1 c6bc 1fa3 1f3d
00000310: 04c8 633d 752b 4e3d b879 343d c77e 4abd
00000320: 4b1d 71bb 0420 b33c 4d4e 9f3d bb95 7fbb
00000330: a8a8 e13b 46aa 7b3d 57dc fcbc 2c7c babb
00000340: bf5b 103c 607f 793d b789 20bd 0cea 623c
00000350: 4665 8e3d 91a1 b23d 2b07 3f3d 118e 38bd
00000360: b563 073d 819c 113d 750d bb3d 6688 d63c
00000370: 68c6 8e3c dcc0 e33b cf74 1ebc e4d3 d6bb
00000380: 4f61 9c3d e8db 183d 6f30 70bd 7c07 28bd
00000390: 4f9c 903c cd02 1d3d 80a7 84bd ab35 433d
000003a0: ddde 403d ff1a 823a 1160 2e3d f547 62bc
000003b0: 5e4f d33c f81d 2b3d 28f8 243d 847e 103d
000003c0: fbc1 2c3d cc31 80bd 7c17 11bd 6a83 363d
000003d0: 0220 c4bc 1d8d aabc 7ce2 53bd a307 a2bb
000003e0: 3484 073d 4554 68bd 04f4 0ab8 dea6 85bd
000003f0: 863d 8bbd a20e 843c b92c 34bd 1dd8 8f3c

bias f4 [12]
-0.04951304 -0.008101257 -0.00032830745 -0.027146108 0.080935255 0.017640155 0.050799947 0.03204254
-0.055138987 -0.01865896 -0.0042191045 -0.03543038
00000000: 2fce 4abd 22bb 04bc ae20 acb9 8461 debc
00000010: 62c1 a53d 1682 903c 9b13 503d 0a3f 033d
00000020: 6bd9 61bd adda 98bc 6a40 8abb 721f 11bd

weight f4 [12]
0.96481484 0.9340223 1.0195795 0.9645212 0.9847973 0.96592206 0.91259944 0.93417364
1.0095154 0.9928648 0.98363346 1.0037233
00000000: 1bfe 763f 161c 6f3f 9581 823f ddea 763f
00000010: ad1b 7c3f ab46 773f 1ea0 693f 0126 6f3f
00000020: cd37 813f 632c 7e3f 67cf 7b3f 017a 803f

bias f4 [12]
-0.0053273384 -0.002021273 -0.019273544 -0.012254291 0.038702235 -0.0024436812 0.014849318 0.017731395
-0.030987838 -0.018634263 0.033019178 -0.017985076
00000000: f490 aebb 5577 04bb 8de3 9dbc 39c6 48bc
00000010: 3c86 1e3d 2b26 20bb 8e4a 733c 6e41 913c
00000020: 35da fdbc e2a6 98bc 1e3f 073d 7055 93bc

running_mean f4 [12]
0.0 0.0 0.0 0.0 0.0 0.0 0.0 0.0
0.0 0.0 0.0 0.0
00000000: 0000 0000 0000 0000 0000 0000 0000 0000
00000010: 0000 0000 0000 0000 0000 0000 0000 0000
00000020: 0000 0000 0000 0000 0000 0000 0000 0000

running_var f4 [12]
1.0 1.0 1.0 1.0 1.0 1.0 1.0 1.0
1.0 1.0 1.0 1.0
00000000: 0000 803f 0000 803f 0000 803f 0000 803f
00000010: 0000 803f 0000 803f 0000 803f 0000 803f
00000020: 0000 803f 0000 803f 0000 803f 0000 803f

weight f4 [24, 12, 5, 5]
0.04137257 0.0061264927 -0.011982252 -0.012165233 0.04888934 0.047734287 0.013233918 -0.011385002
-0.0021050428 0.04423457 0.03623987 -0.025273403 0.015097606 -0.031475008 -0.03018642 0.006393528
0.01608243 0.0059282943 -0.02394042 0.002450726 -0.02921966 0.03915805 0.031507026 -0.006117578
0.06747586 0.08137724 0.025589764 0.04488371 -0.003419594 -0.06727154 0.07205199 0.0034360308
0.05579479 0.042129602 -0.0092578465 -0.012203414 0.039868657 -0.002959942 0.03095595 -0.0754535
0.031981215 0.029331954 0.056520496 0.0239803 -0.0840092 0.012762676 0.06391499 0.043944106
0.015937353 -0.043337457 0.023148285 -0.0035839675 -0.02555978 -0.032144573 -0.011196418 -0.05159001
0.0413267 -0.04911526 -0.05566091 -0.021688368 0.0066655045 -0.04369631 0.0589799 0.0063470406
0.03471889 0.014459255 0.029214688 -0.037624747 -0.024062581 -0.054844953 0.04453412 0.030714983
-0.043596104 0.06579266 -0.012095031 0.026383461 0.033416234 -0.028668784 0.03472941 -0.01724098
0.022332167 0.051845208 -0.008073709 0.00552479 -0.010571964 -0.039036103 0.04739262 -0.036577694
0.04834303 -0.0015537553 0.019785801 -0.008406752 0.0030984068 0.04037961 0.022312492 -0.019689577
-0.015702901 0.01680521 0.005098686 0.038194768 -0.027994238 -0.04512379 -0.045785397 0.029396787
0.009786612 0.0015002498 0.02222922 -0.03114375 -0.0446184 0.024296023 -0.034178756 -0.03743905
-0.034870286 -0.051679473 -0.05762646 -0.033469025 -0.05619423 0.03281534 -0.020266606 0.013307267
-0.027233392 0.024072457 -0.03943526 0.0099951215 -0.03307162 -0.09803701 0.0043596784 -0.07315546
-0.029440861 0.02341323 0.026316278 -0.03464036 0.012037565 0.031021256 0.01867632 -0.046319287
0.03675859 -0.036474925 -0.04083218 0.047607362 -0.021015838 0.05539912 -0.036382854 -0.006621136
0.032566052 -0.029394876 -0.024297489 0.05861281 -0.00588402 0.031836063 -0.02209088 -0.052757777
-0.046748172 0.0040897313 0.025640264 -0.0013696754 0.03808417 0.007257701 0.01904413 -0.038140763
0.03524845 0.02743605 0.052462325 0.05680524 -0.048723716 0.005362472 -0.015572952 -0.01958393
-0.035907254 -0.024780521 -0.0012974809 -0.02347602 -0.013664508 0.031755477 0.02908393 0.052727442
-0.02865098 -0.008666025 -0.026826784 0.04465693 0.039174754 0.067380965 0.056794412 -0.0016829143
0.06644412 0.040973295 0.0053578233 0.013058237 0.06753672 -0.017263347 0.035231348 0.0225233
-0.025190568 0.03357415 0.0026813024 -0.0362012 0.01778668 0.028965132 0.013072346 0.009127445
-0.050947137 -0.022730734 -0.06299765 -0.055510655 -0.042770352 0.013260015 0.0065091406 0.0032877915
-0.022758558 -0.05047116 0.0111846505 0.010588905 -0.026126659 0.060941283 0.048078727 0.006837259
-0.018643474 0.0020473076 0.0043689706 0.047100797 0.014789565 0.020055536 -0.029659007 0.06692585
-0.0441376 0.02835783 0.024381846 -0.013899074 -0.060773447 -0.06321968 -0.039629173 -0.02316535
0.0199972 -0.048767887 0.05238516 0.019158956 0.057622783 0.03276423 0.0052332915 0.004695612
-0.015070478 0.06279796 -0.01308019 -0.01970252 0.023337109 -0.019521676 0.042485952 0.02463411
0.010620545 0.013863691 0.020915195 -0.038829193 -0.020809073 0.015756043 0.031784102 0.06670061
00000000: 4976 293d bfc0 c83b 3551 44bc af50 47bc
00000010: 3040 483d 0785 433d 13d3 583c 2988 3abc
00000020: c2f4 09bb 4f2f 353d 4270 143d 2b0a cfbc
00000030: f35b 773c f0eb 00bd 8349 f7bc cd80 d13b
00000040: 4dbf 833c 2342 c23b b31e c4bc 5c9c 203b
00000050: 125e efbc 3164 203d 830d 013d f775 c8bb
00000060: c930 8a3d 1ca9 a63d a0a1 d13c fbd7 373d
00000070: 441b 60bb a9c5 89bd fe8f 933d 082f 613b
00000080: 1489 643d 1790 2c3d 39ae 17bc d4f0 47bc
00000090: 514d 233d 96fb 41bb 5597 fd3c 5d87 9abd
000000a0: bcfe 023d 9149 f03c 0982 673d 5672 c43c
000000b0: 040d acbd 8b1a 513c dde5 823d bcfe 333d
000000c0: 0d8f 823c 9e82 31bd 79a1 bd3c ffe0 6abb
000000d0: be62 d1bc 07aa 03bd 2e71 37bc 0c50 53bd
000000e0: 3046 293d 152d 49bd b2fc 63bd ceab b1bc
000000f0: 4e6a da3b e7fa 32bd e894 713d d6fa cf3b
00000100: 6535 0e3d 83e6 6c3c a453 ef3c 681c 1abd
00000110: e41e c5bc 1aa5 60bd 6969 363d fd9d fb3c
00000120: d491 32bd 4dbe 863d 3d2a 46bc 2122 d83c
00000130: 76df 083d ccda eabc 6d40 0e3d f53c 8dbc
00000140: f3f1 b63c a45b 543d 9747 04bc 4c09 b53b
00000150: 0836 2dbc 52e4 1fbd c41e 423d 7ed2 15bd
00000160: 5703 463d 60a7 cbba d515 a23c 79bc 09bc
00000170: a40e 4b3b 1765 253d b0c8 b63c 094c a1bc
00000180: 5fa3 80bc 14ab 893c e112 a73b 1e72 1c3d
00000190: 2c54 e5bc b9d3 38bd 7889 3bbd 88d1 f03c
000001a0: 0758 203c 08a4 c43a 0e1a b63c 2d21 ffbc
000001b0: c9c1 36bd 7408 c73c 06ff 0bbd b059 19bd
000001c0: 25d4 0ebd dbad 53bd b909 6cbd d116 09bd
000001d0: ec2b 66bd 6169 063d 2706 a6bc b906 5a3c
000001e0: 9018 dfbc 9a33 c53c de86 21bd 94c2 233c
000001f0: 1b76 07bd a1c7 c8bd a2db 8e3b 88d2 95bd
00000200: f62d f1bc 1acd bf3c 3c95 d73c 0de3 0dbd
00000210: 3539 453c 4a20 fe3c 15ff 983c 4bb9 3dbd
00000220: 2d90 163d bb66 15bd a53f 27bd f0ff 423d
00000230: 6829 acbc 30ea 623d 3006 15bd 1df6 d8bb
00000240: fb63 053d 86cd f0bc 870b c7bc fc13 703d
00000250: bdce c0bb 8866 023d eff7 b4bc 8a18 58bd
00000260: 037b 3fbd 2703 863b 880b d23c ae86 b3ba
00000270: 26fe 1b3d 02d2 ed3b 6f02 9c3c 7d39 1cbd
00000280: ae60 103d 91c1 e03c bce2 563d 9dac 683d
00000290: 8592 47bd adb7 af3b b225 7fbc 7a6e a0bc
000002a0: 7c13 13bd 8500 cbbc 3c10 aaba c850 c0bc
000002b0: 1ae1 5fbc 0812 023d 6c41 ee3c bbf8 573d
000002c0: 76b5 eabc f1fb 0dbc d8c3 dbbc 2fea 363d
000002d0: b575 203d 08ff 893d 42a1 683d 3c95 dcba
000002e0: db13 883d 9dd3 273d ae90 af3b 37f2 553c
000002f0: b150 8a3d dd6b 8dbc bf4e 103d c982 b83c
00000300: 735c cebc 0c85 093d cab8 2f3b b647 14bd
00000310: 5fb5 913c 4948 ed3c 652d 563c 478b 153c
00000320: f2ad 50bd ce35 babc e904 81bd 245f 63bd
00000330: f72f 2fbd 8940 593c a14a d53b fd77 573b
00000340: 2870 babc d9ba 4ebd d33f 373c 167d 2d3c
00000350: 9307 d6bc 919d 793d 33ee 443d 160b e03b
00000360: 33ba 98bc 1f2c 063b 9529 8f3b c4ec 403d
00000370: ee4f 723c 824b a43c 72f7 f2bc 6c10 893d
00000380: a1c9 34bd ae4e e83c 70bc c73c f1b8 63bc
00000390: 94ed 78bd 5279 81bd 3352 22bd 43c5 bdbc
000003a0: 2bd1 a33c d6c0 47bd d291 563d 3ef3 9c3c
000003b0: de05 6c3d c933 063d 087c ab3b a6dd 993b
000003c0: 2bea 76bc 389c 803d 4b4e 56bc 2e67 a1bc
000003d0: 772d bf3c eceb 9fbc c005 2e3d 79cd c93c
000003e0: cb01 2e3c 8924 633c 5856 ab3c 5c0b 1fbd
000003f0: ca77 aabc d112 813c 0c30 023d 549a 883d

bias f4 [24]
-0.01787413 -0.06786816 0.101829246 0.09366437 -0.026171222 0.10208973 0.03905168 0.07669392
-0.024876457 0.0854485 0.015867101 0.0024294078 -0.05819895 0.01653465 0.03421626 -0.06048703
-0.05838147 0.046841238 -0.043712292 0.026223594 0.0015513098 0.024806103 -0.025403634 -0.025357397
00000000: c46c 92bc 76fe 8abd da8b d03d 1bd3 bf3d
00000010: 0865 d6bc 6c14 d13d a8f4 1f3d b411 9d3d
00000020: b6c9 cbbc a0ff ae3d b9fb 813c b336 1f3b
00000030: 0662 6ebd ad73 873c 5926 0c3d 3fc1 77bd
00000040: 6921 6fbd 99dc 3f3d a90b 33bd ddd2 d63c
00000050: 5255 cb3a 2b36 cb3c 481b d0bc 51ba cfbc

weight f4 [24]
0.9744565 1.0011921 0.99199474 0.98779553 1.0344694 1.0144525 1.0231067 0.99517053
0.99225813 0.9885203 0.9657278 0.9752617 0.97637135 0.8887565 0.971956 0.9971756
0.99135405 0.98070776 0.15961593 0.99894226 0.11738589 1.0135028 0.15573093 0.97504276
00000000: fb75 793f 1027 803f 5ef3 7d3f 2be0 7c3f
00000010: 7e69 843f 94d9 813f 29f5 823f 7fc3 7e3f
00000020: a104 7e3f ab0f 7d3f f039 773f c0aa 793f
00000030: 79f3 793f 8c85 633f 1cd2 783f e646 7f3f
00000040: 61c9 7d3f aa0f 7b3f 5c72 233e aeba 7f3f
00000050: 0368 f03d 76ba 813f ee77 1f3e 679c 793f

bias f4 [24]
-0.0017108222 -0.012901368 0.054471992 0.051993348 0.010553483 0.050005298 0.011855783 0.048940867
-0.0024399078 0.036108363 -0.011831811 -0.012986585 -0.003228593 0.001294073 0.0025169628 -0.007980383
-0.009448744 0.008301093 -0.005580403 -0.010324921 -0.0026148753 0.025653765 -0.00984456 -0.011861459
00000000: ab3d e0ba 4260 53bc 061e 5f3d faf6 543d
00000010: 84e8 2c3c 5bd2 4c3d c23e 423c 3876 483d
00000020: dce6 1fbb 5de6 133d 36da 41bc afc5 54bc
00000030: cd96 53bb e29d a93a a1f3 243b 27c0 02bc
00000040: e8ce 1abc 4f01 083c d0db b6bb dc29 29bc
00000050: 545e 2bbb d827 d23c 144b 21bc 9156 42bc

running_mean f4 [24]
0.0 0.0 0.0 0.0 0.0 0.0 0.0 0.0
0.0 0.0 0.0 0.0 0.0 0.0 0.0 0.0
0.0 0.0 0.0 0.0 0.0 0.0 0.0 0.0
00000000: 0000 0000 0000 0000 0000 0000 0000 0000
00000010: 0000 0000 0000 0000 0000 0000 0000 0000
00000020: 0000 0000 0000 0000 0000 0000 0000 0000
00000030: 0000 0000 0000 0000 0000 0000 0000 0000
00000040: 0000 0000 0000 0000 0000 0000 0000 0000
00000050: 0000 0000 0000 0000 0000 0000 0000 0000

running_var f4 [24]
1.0 1.0 1.0 1.0 1.0 1.0 1.0 1.0
1.0 1.0 1.0 1.0 1.0 1.0 1.0 1.0
1.0 1.0 1.0 1.0 1.0 1.0 1.0 1.0
00000000: 0000 803f 0000 803f 0000 803f 0000 803f
00000010: 0000 803f 0000 803f 0000 803f 0000 803f
00000020: 0000 803f 0000 803f 0000 803f 0000 803f
00000030: 0000 803f 0000 803f 0000 803f 0000 803f
00000040: 0000 803f 0000 803f 0000 803f 0000 803f
00000050: 0000 803f 0000 803f 0000 803f 0000 803f

weight f4 [24, 24, 5, 5]
0.012792656 -0.016542204 0.0066827913 0.030882314 0.0063296943 0.025639426 0.0066082035 0.036052898
-0.0019474286 0.009820106 -0.025515642 0.01088475 0.020105215 0.03626219 0.028878683 -0.03241248
0.0037500628 -0.006621496 0.003460219 -0.037983116 -0.02183457 -0.004180724 0.011909514 -0.0007635515
0.023947489 -0.042857837 0.03944806 0.0067196535 0.031047577 0.037076455 0.028702877 0.026801527
0.025616603 -0.013882729 0.014909947 0.010228095 -0.008140647 -0.005097027 -0.033790037 -0.02163244
0.007585085 0.0072463593 0.017092798 -0.0044769607 0.016131992 -0.02046726 0.04089796 0.06591724
0.041212875 0.023608332 -0.03169309 0.0011879376 0.010175667 -0.02757932 -0.027120737 0.002885818
0.011715108 0.020105947 -0.03344485 -0.02967547 0.0048061144 -0.03165459 -0.034011077 -0.03096446
-0.010857845 -0.037384205 0.0012882575 -0.029537072 -0.06901866 -0.07448498 -0.05451748 -0.020818818
-0.037436035 -0.07059391 -0.0630354 0.006472332 -0.0030226684 -0.029271377 0.0065146135 -0.03800644
-0.020236444 -0.008337794 -0.023303345 -0.014298437 -0.02497663 -0.016781095 0.010256373 -0.044098765
-0.0147912195 -0.08137369 -0.057914756 -0.051328972 -0.04174675 -0.099073835 -0.032278772 -0.07146032
-0.084820196 -0.10405638 -0.07668072 -0.07091629 0.025291877 -0.0074530113 -0.02838386 -0.041434217
-0.001378432 -0.030520998 0.02854153 -0.050274614 -0.020377146 -0.038503006 0.01910533 0.012529629
-0.04740277 -0.05476116 -0.03220272 -0.031025356 -0.009819482 -0.04067893 -0.045179516 -0.049182393
-0.06320733 -0.041424982 -0.055239722 -0.026393559 -0.030336207 -0.06151587 -0.07092062 -0.05174261
-0.045311354 -0.054073974 -0.032715436 -0.07223017 -0.10267087 -0.06819484 0.00905081 -0.06943643
-0.08710838 -0.08305753 -0.019687498 0.009160554 -0.070641726 -0.057711873 -0.0801311 -0.007414957
0.020633422 -0.100927874 -0.10875072 -0.10214156 -0.014332537 -0.029902032 -0.046200074 -0.037906658
-0.021922683 -0.014455274 -0.031918928 0.007895003 -0.0012830129 -0.039805714 -0.03853553 -0.04137248
-0.0035792363 -0.018104412 -0.018313333 -0.031604934 -0.06347459 0.0035754556 0.009368524 -0.014068729
-0.054585617 -0.0018978565 -0.046783194 -0.019185215 -0.0587623 -0.0026763645 -0.062603004 0.01691521
-0.025088308 -0.036578145 -0.0031045654 -0.014382038 -0.038602885 0.010252319 -0.022336937 -0.040638395
-0.02545705 -0.0051341406 0.008423994 -0.012364547 -0.049072012 -0.05213253 -0.017151153 -0.01665043
-0.0040716403 0.008546036 -0.041587953 -0.0307851 -0.02300211 -0.060944166 0.0023443643 -0.015848855
-0.03303457 -0.0068485877 0.018296346 0.02241714 -0.033804737 0.022768982 -0.04649743 -0.032241926
0.018693315 -0.035285898 -0.03798525 -0.04785877 0.028221367 0.0058884094 -0.032351132 -0.020596465
-0.039431598 0.02968271 0.0063777883 0.029596053 0.017916244 -0.008309121 0.0066001154 -0.018112447
-0.045248207 0.024632888 0.013400981 -0.029567314 -0.030341055 0.005726642 -0.0014245613 -0.015838088
0.026888914 -0.05207241 -0.027087115 -0.012005354 0.033394042 0.019056622 -0.03756138 0.019581659
0.012679915 0.0073117865 -0.0032348428 -0.017263006 -0.006215714 -0.013035908 -0.011739647 -0.02971169
-0.027608788 -0.015312929 -0.002873964 -0.012423112 0.008225352 -0.0103676235 0.035836767 -0.043939043
00000000: 4a98 513c 8483 87bc 51fb da3b e8fc fc3c
00000010: 5369 cf3b c609 d23c a189 d83b 34ac 133d
00000020: dc40 ffba 83e4 203c 2e06 d1bc f355 323c
00000030: b1b3 a43c aa87 143d fd92 ec3c f3c2 04bd
00000040: 9dc3 753b 22f9 d8bb d7c4 623b 2f94 1bbd
00000050: 6ade b2bc 74fe 88bb 1f20 433c 1329 48ba
00000060: 862d c43c b38b 2fbd 4a94 213d 8a30 dc3b
00000070: 7d57 fe3c 7bdd 173d 4c22 eb3c e08e db3c
00000080: e9d9 d13c 6374 63bc da48 743c bd93 273c
00000090: 5960 05bc f604 a7bb 6c67 0abd 8436 b1bc
000000a0: 4e8c f83b de72 ed3b 3206 8c3c 78b3 92bb
000000b0: 3d27 843c f5aa a7bc 9f84 273d 9eff 863d
000000c0: d5ce 283d 4366 c13c 9dd0 01bd 92b4 9b3a
000000d0: d7b7 263c 07ee e1bc 4f2c debc fe1f 3d3b
000000e0: b9f0 3f3c 3ab5 a43c 78fd 08bd f919 f3bc
000000f0: 9c7c 9d3b 3ea8 01bd 334f 0bbd 2ea9 fdbc
00000100: 1ae5 31bc 2e20 19bd c0da a83a bbf7 f1bc
00000110: a859 8dbd 958b 98bd b94d 5fbd 3a8c aabc
00000120: 8756 19bd 8a93 90bd b418 81bd db15 d43b
00000130: f617 46bb 87ca efbc 8a78 d53b a4ac 1bbd
00000140: e6c6 a5bc 3e9b 08bc a8e6 bebc fe43 6abc
00000150: ca9b ccbc 8278 89bc 590a 283c e8a0 34bd
00000160: df56 72bc 40a7 a6bd 0638 6dbd 543e 52bd
00000170: a4fe 2abd 39e7 cabd bf36 04bd ca59 92bd
00000180: 36b6 adbd 831b d5bd c80a 9dbd 8f3c 91bd
00000190: e930 cf3c 6438 f4bb 4585 e8bc edb6 29bd
000001a0: 81ac b4ba 2c07 fabc edcf e93c c1ec 4dbd
000001b0: f9ed a6bc 54b5 1dbd c882 9c3c 1349 4d3c
000001c0: 6829 42bd 3d4d 60bd 00e7 03bd e328 febc
000001d0: e5e1 20bc f39e 26bd 280e 39bd 7a73 49bd
000001e0: d872 81bd 3ead 29bd 0c43 62bd 4e37 d8bc
000001f0: a383 f8bc 11f8 7bbd d43e 91bd 0ff0 53bd
00000200: 6698 39bd ac7c 5dbd 9f00 06bd 69ed 93bd
00000210: 1b45 d2bd bca9 8bbd d949 143c b034 8ebd
00000220: e165 b2bd 111a aabd ad47 a1bc 2616 163c
00000230: 9cac 90bd 4963 6cbd c61b a4bd 2bf9 f2bb
00000240: 6c07 a93c 46b3 cebd b3b8 debd 982f d1bd
00000250: 04d3 6abc 1bf5 f4bc 4a3c 3dbd 0344 1bbd
00000260: 3397 b3bc d0d5 6cbc 6cbd 02bd 0b5a 013c
00000270: c52a a8ba 510b 23bd 6fd7 1dbd 3176 29bd
00000280: 9f91 6abb b44f 94bc d805 96bc 2d74 01bd
00000290: f7fe 81bd 3152 6a3b 707e 193c 8780 66bc
000002a0: 2b95 5fbd 7fc1 f8ba bc9f 3fbd 502a 9dbc
000002b0: bdb0 70bd f265 2fbb 0136 80bd c491 8a3c
000002c0: ff85 cdbc f7d2 15bd f775 4bbb a4a2 6bbc
000002d0: 0f1e 1ebd 58f9 273c f4fb b6bc 7274 26bd
000002e0: 4e8b d0bc 4b3c a8bb cb04 0a3c ab94 4abc
000002f0: bcff 48bd eb88 55bd 9380 8cbc 7c66 88bc
00000300: 656b 85bb ac04 0c3c 2158 2abd 0931 fcbc
00000310: ec6e bcbc 97a0 79bd e8a3 193b 75d5 81bc
00000320: 424f 07bd 1e6a e0bb 38e2 953c 26a4 b73c
00000330: d676 0abd 0486 ba3c 1774 3ebd 1c10 04bd
00000340: b922 993c f287 10bd 6c96 1bbd 8f07 44bd
00000350: 7f30 e73c 8ff3 c03b 9f82 04bd ebb9 a8bc
00000360: 0783 21bd 2829 f33c c4fc d03b 6c73 f23c
00000370: 16c5 923c fb22 08bc c845 d83b 8e60 94bc
00000380: 2f56 39bd e9ca c93c ca8f 5b3c 2737 f2bc
00000390: ce8d f8bc 8ea6 bb3b 58b8 baba e1be 81bc
000003a0: 2446 dc3c e149 55bd cce5 ddbc 1bb2 44bc
000003b0: 31c8 083d a21c 9c3c f6d9 19bd b769 a03c
000003c0: 6bbf 4f3c b697 ef3b a8ff 53bb 266b 8dbc
000003d0: 30ad cbbb 9094 55bc a657 40bc ee65 f3bc
000003e0: d32b e2bc 14e3 7abc 1d59 3cbb 4f8a 4bbc
000003f0: a0c3 063c f7dc 29bc 93c9 123d 6df9 33bd

bias f4 [24]
-0.026557345 0.054262932 -0.019800037 0.04716459 -0.011267074 0.013425561 -0.005636001 0.030614207
0.010742278 -0.04631109 -0.013280972 0.02535754 0.042966567 0.033839907 0.01886932 0.047773164
-0.027006824 -0.004983616 -0.032161746 -0.03410771 0.0015067154 0.02042933 0.01533224 -0.025742333
00000000: ca8e d9bc cf42 5e3d b033 a2bc a82f 413d
00000010: 8999 38bc e2f6 5b3c 34ae b8bb a5ca fa3c
00000020: 6100 303c b3b0 3dbd 6f98 59bc 9eba cf3c
00000030: b6fd 2f3d b79b 0a3d d593 9a3c cbad 433d
00000040: 6a3d ddbc 9a4d a3bb 09bc 03bd 87b4 0bbd
00000050: fb7c c53a 695b a73c 1334 7b3c 96e1 d2bc

weight f4 [24]
1.0004838 1.001018 0.9725421 1.0113137 0.9702325 1.0228508 0.9687824 0.94058216
1.0433823 0.95247006 0.9985449 0.9788147 1.0073901 0.94361717 1.0003785 0.9814217
0.99039966 0.9821132 0.99416244 1.02738 0.98222035 0.96394706 0.9907667 0.97203714
00000000: da0f 803f 5c21 803f 85f8 783f ba72 813f
00000010: 2861 783f c6ec 823f 2002 783f fec9 703f
00000020: 8d8d 853f 14d5 733f a3a0 7f3f 9a93 7a3f
00000030: 29f2 803f e590 713f 670c 803f 743e 7b3f
00000040: d58a 7d3f c56b 7b3f 6e81 7e3f 3081 833f
00000050: cb72 7b3f 3cc5 763f e3a2 7d3f 6dd7 783f

bias f4 [24]
0.0013037147 0.025135485 -0.007432629 0.03053084 -0.0013858826 0.0044363327 -0.0025820658 -0.0076665916
-0.0080929585 -0.017368158 0.020309372 -0.0028638344 0.003488746 0.032992892 0.00036445854 0.022214452
-0.009768872 0.0010567469 -0.01393899 -0.004187514 0.013661054 -0.002217837 0.0062180036 0.0038304469
00000000: 68e1 aa3a efe8 cd3c 698d f3bb d01b fa3c
00000010: 81a6 b5ba a85e 913b e037 29bb 0838 fbbb
00000020: 5498 04bc ab47 8ebc d75f a63c 2baf 3bbb
00000030: 72a3 643b 8e23 073d cc14 bf39 15fb b53c
00000040: 9e0d 20bc 8b82 8a3a 5d60 64bc 6a37 89bb
00000050: 9dd2 5f3c 2159 11bb 65c0 cb3b 3c08 7b3b

running_mean f4 [24]
0.0 0.0 0.0 0.0 0.0 0.0 0.0 0.0
0.0 0.0 0.0 0.0 0.0 0.0 0.0 0.0
0.0 0.0 0.0 0.0 0.0 0.0 0.0 0.0
00000000: 0000 0000 0000 0000 0000 0000 0000 0000
00000010: 0000 0000 0000 0000 0000 0000 0000 0000
00000020: 0000 0000 0000 0000 0000 0000 0000 0000
00000030: 0000 0000 0000 0000 0000 0000 0000 0000
00000040: 0000 0000 0000 0000 0000 0000 0000 0000
00000050: 0000 0000 0000 0000 0000 0000 0000 0000

running_var f4 [24]
1.0 1.0 1.0 1.0 1.0 1.0 1.0 1.0
1.0 1.0 1.0 1.0 1.0 1.0 1.0 1.0
1.0 1.0 1.0 1.0 1.0 1.0 1.0 1.0
00000000: 0000 803f 0000 803f 0000 803f 0000 803f
00000010: 0000 803f 0000 803f 0000 803f 0000 803f
00000020: 0000 803f 0000 803f 0000 803f 0000 803f
00000030: 0000 803f 0000 803f 0000 803f 0000 803f
00000040: 0000 803f 0000 803f 0000 803f 0000 803f
00000050: 0000 803f 0000 803f 0000 803f 0000 803f

weight f4 [11, 8640]
0.02925592 0.0342317 0.026034156 0.018435169 0.009911936 0.006706283 -0.003711661 0.0013756442
0.009112648 -0.0020996432 -0.005408028 0.0027083668 0.002360548 -0.010026801 -0.010138168 0.03950896
0.029711101 0.03523837 0.006465324 -0.003865602 0.007890184 -0.0046110675 0.008373859 0.0012278659
0.0048669735 -0.008702182 -0.01073817 -0.007891101 -0.021672906 -0.008902521 0.035988763 0.029626215
0.02066801 0.010540106 -0.013321106 -0.009848514 -0.009059933 -0.00540622 -0.002065222 0.0032405634
-0.0010488962 -0.01590441 -0.029829485 -0.027249593 -0.025263038 0.03406685 0.01672132 -0.0015636461
-0.0027590038 -0.01269443 -0.020281347 -0.019187814 -0.015031325 0.0007438029 -0.0011924164 -0.014940746
-0.033537503 -0.024862194 -0.030378735 -0.026270734 0.016370555 0.012294399 0.0058138603 -0.007664412
-0.013683803 -0.022458967 -0.024323538 -0.020404743 -0.01250778 -0.010833493 -0.019107763 -0.02508888
-0.04325837 -0.026157321 -0.018205376 -0.0018092158 -0.006900027 0.0032389285 -0.015765421 -0.011789087
-0.013023308 -0.015373824 -0.015984494 -0.014715252 -0.01995253 -0.02749174 -0.02726 -0.032949384
-0.020848587 -0.019660095 -0.006436209 0.0050540944 -0.0067235474 -0.004799864 -0.01840842 -0.019371066
-0.014844863 -0.019940633 -0.012342989 -0.02088762 -0.034491766 -0.04178333 -0.03974291 -0.02178677
-0.026908506 0.013491964 0.0024763476 0.0016764363 -0.013533108 -0.02164475 -0.015788259 -0.016566182
-0.016820151 -0.0051722843 -0.029002009 -0.043231495 -0.024050489 -0.035204075 -0.022810718 -0.01796746
0.0017243155 0.0020176552 2.9773613e-05 -0.004246344 -0.012361647 -0.01988069 -0.015851041 -0.013664355
-0.0072969394 -0.035305336 -0.01666434 -0.020737391 -0.012389054 -0.019802062 -0.025342774 0.0071189827
0.00030741544 -0.008891951 -0.0121447835 -0.021819543 -0.019218948 -0.015462328 -0.017162701 -0.017941974
-0.017849378 -0.023871707 -0.013548042 -0.010740432 -0.025051244 -0.020550003 0.009379599 -0.010439189
-0.022610165 -0.02307058 -0.020957064 -0.017660344 -0.005890909 -0.017501533 -0.015187321 -0.01285977
-0.02381387 -0.029528512 -0.02573979 -0.024074594 -0.025756652 0.005387434 -0.007339831 -0.018061621
-0.01871277 -0.0092435535 -0.015718773 -0.011317592 -0.008325929 -0.013917757 -0.024973901 -0.015744317
-0.03272242 -0.010649954 -0.026459591 -0.02444098 -0.0011199217 -0.01715763 -0.0054378854 -0.020536004
-0.0172328 -0.013880083 -0.014071814 -0.01623625 -0.016938088 -0.02338259 -0.033403307 -0.017469058
-0.012358663 -0.012761234 -0.01124375 -0.004242123 -0.012770691 0.0028390589 -0.0073302747 -0.018388929
-0.010055506 -0.020186247 -0.017851518 -0.012223391 -0.028052757 -0.033921823 -0.021437429 -0.008647552
-0.013939658 -0.029425323 -0.0030315078 -0.0086478125 0.009959995 -0.0069135097 -0.009767558 -0.014126264
-0.0059668827 -0.020955723 -0.026449282 -0.022261448 -0.023461333 -0.014006766 -0.016164249 -0.021880833
-0.021459421 -0.0068687773 -0.0042961766 0.007445464 -0.007233368 -0.008344662 -0.011535307 -0.005834857
-0.0195733 -0.029006755 -0.023072155 -0.021473013 -0.01920891 -0.009639919 -0.014807586 -0.023975873
-0.024151208 -0.008626821 -0.009814296 -0.009108841 -0.011900167 -0.014173303 -0.016097212 -0.015045988
-0.036000755 -0.022246951 -0.029612446 -0.015615072 -0.008864141 -0.01872191 -0.020680465 -0.021311942
00000000: 1caa ef3c 8a36 0c3d 9545 d53c 5a05 973c
00000010: ac65 223c 61c0 db3b 573f 73bb f64e b43a
00000020: 374d 153c 2b9a 09bb d435 b1bb db7e 313b
00000030: 6cb3 1a3b 7447 24bc 8f1a 26bc 26d4 213d
00000040: b264 f33c 1c56 103d 12db d33b 0a56 7dbb
00000050: d545 013c 7018 97bb 8332 093c 58f0 a03a
00000060: 227b 9f3b 9993 0ebc 26ef 2fbc ad49 01bc
00000070: 618b b1bc e1db 11bc f468 133d adb2 f23c
00000080: f54f a93c 69b0 2c3c c540 5abc a95b 21bc
00000090: 1d70 14bc a926 b1bb ad58 07bb a25f 543b
000000a0: 1e7b 89ba f749 82bc f75c f4bc 8a3a dfbc
000000b0: 6ef4 cebc ae89 0b3d 26fb 883c 42f3 ccba
000000c0: 67d0 34bb 4cfc 4fbc 1125 a6bc c32f 9dbc
000000d0: f245 76bc c5fb 423a db4a 9cba 08ca 74bc
000000e0: 9f5e 09bd cdab cbbc d3dc f8bc b935 d7bc
000000f0: 8b1b 863c 726e 493c 3282 be3b bf25 fbbb
00000100: 0832 60bc defb b7bc 2842 c7bc d927 a7bc
00000110: 6fed 4cbc f77e 31bc e287 9cbc 3287 cdbc
00000120: b02f 31bd e147 d6bc 7123 95bc 3523 edba
00000130: 9f19 e2bb 3444 543b 7c26 81bc 0427 41bc
00000140: b65f 55bc 7ee2 7bbc eaf1 82bc 3e18 71bc
00000150: 7d73 a3bc 5c36 e1bc 5d50 dfbc eff5 06bd
00000160: a8ca aabc 350e a1bc d6e6 d2bb d19c a53b
00000170: 3451 dcbb 2d48 9dbb 41cd 96bc 12b0 9ebc
00000180: de37 73bc 8a5a a3bc 403a 4abc 841c abbc
00000190: 3d47 0dbd ff24 2bbd 76c9 22bd 2b7a b2bc
000001a0: 3a6f dcbc 660d 5d3c 384a 223b debb db3a
000001b0: f8b9 5dbc 5550 b1bc 6156 81bc cdb5 87bc
000001c0: 6aca 89bc 447c a9bb 9f95 edbc 8213 31bd
000001d0: 8805 c5bc 2632 10bd 8bdd babc 7f30 93bc
000001e0: 6d02 e23a a33a 043b 59c2 f937 ea24 8bbb
000001f0: 8188 4abc d4dc a2bc 0bda 81bc 75e0 5fbc
00000200: 2a1b efbb 549c 10bd a783 88bc 76e1 a9bc
00000210: 75fb 4abc ef37 a2bc a69b cfbc 5b46 e93b
00000220: 9a2c a139 8caf 11bc eafa 46bc e6be b2bc
00000230: 0e71 9dbc b455 7dbc cb98 8cbc 0cfb 92bc
00000240: dc38 92bc 998e c3bc 9bf8 5dbc a3f8 2fbc
00000250: 4438 cdbc 7b58 a8bc e4ac 193c 2209 2bbc
00000260: f438 b9bc 83fe bcbc 26ae abbc 6dac 90bc
00000270: 8708 c1bb 605f 8fbc 3ed4 78bc c9b1 52bc
00000280: 4e15 c3bc c7e5 f1bc 41dc d2bc 1538 c5bc
00000290: 9dff d2bc 1289 b03b f782 f0bb f7f5 93bc
000002a0: 864b 99bc 4672 17bc a8c4 80bc 6c6d 39bc
000002b0: 7a69 08bc 4e07 64bc 1196 ccbc 3afa 80bc
000002c0: f207 06bd 257d 2ebc c9c1 d8bc 7338 c8bc
000002d0: 56ca 92ba 288e 8cbc 4a30 b2bb 1f3b a8bc
000002e0: cd2b 8dbc 4a69 63bc 778d 66bc e201 85bc
000002f0: bfc1 8abc d88c bfbc e8d1 08bd 451b 8fbc
00000300: fd7b 4abc 7f14 51bc b537 38bc 8201 8bbb
00000310: 293c 51bc 810f 3a3b cd32 f0bb 61a4 96bc
00000320: d9bf 24bc a15d a5bc 593d 92bc 9e44 48bc
00000330: e5ce e5bc 9cf1 0abd 8c9d afbc 76ae 0dbc
00000340: 2a63 64bc 600d f1bc 43ac 46bb 8eaf 0dbc
00000350: 3f2f 233c b98a e2bb 1c08 20bc d871 67bc
00000360: d785 c3bb 56ab abbc 2aac d8bc a45d b6bc
00000370: fb31 c0bc a27c 65bc e36a 84bc 6f3f b3bc
00000380: abcb afbc 7b13 e1bb f1c6 8cbb 14f9 f33b
00000390: e305 edbb 0db8 08bc 96fe 3cbc 5432 bfbb
000003a0: 2f58 a0bc 939f edbc d101 bdbc 2ce8 afbc
000003b0: 015c 9dbc c0f0 1dbc 849b 72bc 0d69 c4bc
000003c0: c1d8 c5bc 8357 0dbc 24cc 20bc 403d 15bc
000003d0: ebf8 42bc 2437 68bc 4dde 83bc 7383 76bc
000003e0: 8775 13bd 3d3f b6bc cd95 f2bc 5cd6 7fbc
000003f0: e73a 11bc b15e 99bc 146a a9bc 6296 aebc

bias f4 [11]
0.00934591 -0.004893426 -0.00052369107 -0.013180708 0.010165724 0.0070771347 -0.008124087 -0.00068552705
-0.012071702 0.022735367 -0.0023751652
00000000: 961f 193c 0859 a0bb 5048 09ba e5f3 57bc
00000010: 238e 263c 4fe7 e73b e41a 05bc f1b4 33ba
00000020: 63c8 45bc 853f ba3c a9a8 1bbb
